Premis Ludi/Assets/Models/digit_recognition_model.tflite (tflite, 116608 bytes, 6 tensors)

arith.constant1 f4 [64]
0.044110987 0.14400809 -0.029232698 0.0061670314 0.15753874 0.095926344 0.023921775 -0.010590513
0.09054137 0.04508161 -0.039987408 0.033278815 0.0046197297 0.041918382 0.026134783 0.045016173
0.01244316 -0.023140097 0.09022548 0.16333665 0.12308654 0.078602314 0.039542466 0.09353201
-0.064620614 0.15938859 0.14353362 -0.0042750956 -0.049239445 0.10409175 0.11245877 -0.034524333
0.03426868 -0.04937447 0.14883246 0.06360018 -0.033746902 0.025354369 -0.07098801 -0.03924343
0.0060529383 -0.07995971 0.12273628 -0.00032937186 0.03478466 0.036181353 0.17120701 0.03945882
0.032046787 0.020972224 0.030010171 0.023665689 -0.056702703 0.16890758 0.074333996 0.03928122
-0.025219476 0.0024169509 0.1556306 -0.016918711 -0.047668394 0.095759496 0.012421101 0.055630963
00000000: b9ad 343d db76 133e 6979 efbc cf14 ca3b
00000010: d651 213e 0875 c43d 99f7 c33c d583 2dbc
00000020: c16d b93d 7fa7 383d d6c9 23bd 5e4f 083d
00000030: 1a61 973b 9cb2 2b3d 9d18 d63c e162 383d
00000040: 65de 4b3c 4d90 bdbc 23c8 b83d b941 273e
00000050: cc14 fc3d 40fa a03d 48f7 213d b68d bf3d
00000060: d057 84bd c336 233e 7afa 123e 1a16 8cbb
00000070: 4daf 49bd 0e2e d53d c950 e63d 6369 0dbd
00000080: 515d 0c3d e23c 4abd 8967 183e d040 823d
00000090: 313a 0abd f7b3 cf3c 2962 91bd b8bd 20bd
000000a0: ba57 c63b ebc1 a3bd 295d fb3d 8baf acb9
000000b0: 5c7a 0e3d e632 143d e450 2f3e 929f 213d
000000c0: 7e43 033d f1cd ab3c e4d7 f53c 8cde c13c
000000d0: 1841 68bd 1cf6 2c3e 6c3c 983d 58e5 203d
000000e0: 1399 cebc b565 1e3b a15d 1f3e 1c99 8abc
000000f0: ef3f 43bd 8e1d c43d e081 4b3c 4bdd 633d

arith.constant2 f4 [128]
0.03137581 0.08405467 -0.11866427 0.02042606 -0.007821176 0.1361578 0.030118642 -0.025290426
0.080659024 0.009495155 0.069904365 -0.0031369731 0.075723894 0.011930112 0.03919579 0.09126761
-0.0609639 0.026549341 -0.009558505 -0.07739439 -0.04420262 0.11176847 -0.05561231 -0.012511968
-0.058265522 -0.053746864 0.077810004 0.11237638 -0.03116401 0.10642588 -0.026646886 0.0052738814
0.0737791 -0.066320896 0.122365825 0.09005328 -0.09721103 -0.026525525 0.08387995 -0.003133953
0.04943692 0.095306076 0.014212843 0.038083598 0.03776748 0.0032502308 0.06971024 -0.008276477
-0.03149308 0.100683294 -0.00033344736 0.09244129 0.02107363 -0.0011765199 -0.023935007 -0.002645347
-0.034044255 0.055414878 -0.061037153 0.037339337 -0.068223506 0.016552025 0.02468165 0.10146424
-0.014677824 -0.009483805 0.08583908 -0.08162636 0.013216887 0.092058174 0.078557625 0.011942274
0.10577731 0.043928172 -0.03982701 0.12858936 -0.029176973 -0.110344164 0.11869415 0.11724625
0.028801922 -0.014384378 -0.060360104 -0.0037390133 -0.008345645 -0.034585238 -0.0762245 0.07777447
0.011593045 0.063342825 0.038550872 -0.049900934 -0.04552172 0.006431619 -0.034572862 0.111410506
0.077266276 0.0833251 0.07204063 -0.047829796 -0.0022034207 0.07683707 -0.036267962 0.003342479
-0.05987367 0.0006148923 -0.039700165 -0.072547734 -0.08161604 0.08324102 0.013109262 -0.00404515
-0.113460876 0.0255414 0.05592487 0.1369571 0.11054521 0.052563153 0.041980583 -0.04112261
0.026514275 -0.04778019 0.021583866 -0.061396923 -0.0021492757 0.11480505 0.119074196 -0.024756795
00000000: ec83 003d db24 ac3d 4106 f3bd 8d54 a73c
00000010: 6424 00bc f36c 0b3e 5fbb f63c de2d cfbc
00000020: 8f30 a53d 9191 1b3c 052a 8f3d ad95 4dbb
00000030: 2115 9b3d 8476 433c c48b 203d 83ea ba3d
00000040: 48b5 79bd 017e d93c 479b 1cbc f380 9ebd
00000050: ce0d 35bd dee6 e43d bcc9 63bd fffe 4cbc
00000060: d4a7 6ebd ac25 5cbd da5a 9f3d 9625 e63d
00000070: aa4b ffbc d0f5 d93d 924a dabc 86d0 ac3b
00000080: 7f19 973d 40d3 87bd ef9a fa3d db6d b83d
00000090: 9416 c7bd 0f4c d9bc 40c9 ab3d 0263 4dbb
000000a0: 5e7e 4a3d d52f c33d fcdc 683c 8cfd 1b3d
000000b0: 13b2 1a3d d301 553b 3ec4 8e3d 109a 07bc
000000c0: e3fe 00bd 0b33 ce3d 8cd2 aeb9 dc51 bd3d
000000d0: 9ba2 ac3c 7535 9aba 5913 c4bc 8f5d 2dbb
000000e0: fd71 0bbd b6fa 623d 1802 7abd 22f1 183d
000000f0: c4b8 8bbd 1d98 873c 2c31 ca3c 7ccc cf3d
00000100: 427b 70bc f661 1bbc 66cc af3d b92b a7bd
00000110: a48b 583c ff88 bc3d d2e2 a03d 87a9 433c
00000120: c6a1 d83d 07ee 333d a621 23bd eeac 033e
00000130: 8c04 efbc 1ffc e1bd eb15 f33d cd1e f03d
00000140: 02f2 eb3c 74ac 6bbc 283c 77bd 3c0a 75bb
00000150: 2cbc 08bc 40a9 0dbd 971b 9cbd 3948 9f3d
00000160: c1f0 3d3c e2b9 813d 85e7 1d3d ec64 4cbd
00000170: fc74 3abd 55c0 d23b 469c 0dbd 312b e43d
00000180: c83d 9e3d 5aa6 aa3d 0a8a 933d 2de9 43bd
00000190: 4467 10bb c15c 9d3d b78d 14bd 7e0d 5b3b
000001a0: 183e 75bd b930 213a a49c 22bd e893 94bd
000001b0: 4f26 a7bd 457a aa3d 3bc8 563c 2d8d 84bb
000001c0: 2d5e e8bd 333c d13c 7a11 653d 7b3e 0c3e
000001d0: 8765 e23d 764c 573d d5f3 2b3d 2f70 28bd
000001e0: 7734 d93c 29b5 43bd a6d0 b03c 577b 7bbd
000001f0: ddda 0cbb e91e eb3d 2cdd f33d c3ce cabc

arith.constant3 f4 [10]
-0.05453895 -0.044213302 0.05919972 -0.11901646 0.017201388 0.010287388 -0.003039733 -0.06866459
0.1198244 0.02628964
00000000: 3c64 5fbd 0219 35bd 687b 723d e7be f3bd
00000010: ede9 8c3c 6f8c 283c 4236 47bb 05a0 8cbd
00000020: 7f66 f53d 5f5d d73c

arith.constant4 f4 [10, 64]
-0.6662851 -0.07649611 -0.3148937 -0.3982198 -0.30524656 -0.45412007 0.3417265 -0.013965619
0.063557215 0.24652322 -0.5039382 -0.3499925 0.15249874 -0.19366993 -0.072094195 0.039783344
0.170156 0.2969308 -0.48142844 0.027498057 -0.12146 -0.030631803 0.39176568 -0.04575067
-0.52356744 0.2169937 -0.19547799 0.25809065 -0.2379464 -0.2170712 0.20224401 -0.46101713
0.37634516 -0.09202417 -0.22748528 -0.29622927 -0.1906481 -0.21513908 -0.1460274 0.031982932
-0.26232085 -0.29546347 -0.089566536 -0.3014583 0.21623471 -0.18771556 0.11008811 -0.22151794
-0.44606906 -0.41406474 -0.24216896 0.27984262 0.38509387 -0.5420883 0.029272746 -0.053614985
0.38696885 -0.13036789 0.25586915 0.18359889 -0.12537912 -0.3241016 -0.11949858 0.08113097
0.2228265 0.13295366 -0.065417916 0.3427258 -0.4999103 0.2435922 0.08446283 0.076168835
0.24478559 -0.37692052 -0.1294549 -0.26538277 -0.17644383 -0.07063498 0.054622136 -0.22059445
0.3154429 0.27576378 -0.11269787 -0.16880734 -0.40253827 0.1561388 0.12377542 -0.30546474
-0.15456033 -0.42523837 0.1280298 0.34091467 -0.29356274 -0.14613444 -0.008493797 0.2954415
0.25572756 -0.11455897 -0.33858737 -0.40825287 -0.0112302285 0.106831856 -0.20436105 -0.40311688
0.360634 0.12237829 -0.18982913 -0.39541006 -0.23904265 -0.24510212 -0.34823036 0.20853281
-0.23879828 -0.09607306 -0.36154023 -0.18230659 -0.23980932 -0.048495404 -0.22398667 0.40943718
-0.64011246 0.022983797 -0.045646057 -0.20919396 0.38970974 -0.39810106 0.06278634 -0.13884442
-0.13322812 -0.5177308 -0.45864323 -0.37741858 0.26795325 -0.36537245 -0.39843753 -0.010750947
0.24449696 -0.41919857 -0.21313874 -0.3412535 0.13586985 -0.18367788 0.064826965 0.009406057
0.50889933 0.2588667 0.20220177 -0.35767007 0.028940674 -0.44349924 -0.32115072 -0.15946744
0.095657796 0.028791873 0.32188448 -0.03900555 -0.14102231 -0.7218906 0.226747 0.35190237
0.21487068 -0.16440777 0.39671022 0.19893034 -0.54192245 -0.23807865 0.21457288 -0.24340731
0.33882707 0.06905643 0.039724186 0.03222477 0.009097567 0.060913406 -0.225099 -0.4505749
0.19994125 -0.0066736825 0.01627755 0.005633459 -0.023764135 -0.5341745 0.23958494 0.030121928
-0.38396958 0.19516172 0.046423744 0.17088473 -0.0694653 0.34034064 0.09758091 0.190367
-0.3523235 -0.4112714 0.4413458 0.29399854 -0.3300541 -0.056383945 -0.108398564 0.04651517
-0.4021181 0.10902268 0.18050873 -0.4194014 0.08957774 -0.04729496 -0.4317336 0.26305056
0.14834826 0.14770436 0.31617957 -0.17982465 0.2438605 0.007189172 0.4159543 0.33531046
0.4114296 -0.1880002 -0.023812687 -0.081299506 0.12569334 0.28313148 -0.297976 0.13472897
-0.23896737 -0.25105923 -0.03285307 -0.07280151 0.36975867 0.20329694 0.014494268 -0.20669995
0.33537337 -0.17695543 -0.011253939 -0.020777285 0.038354397 0.0922581 0.0059341453 -0.38724837
0.097205095 0.32024822 0.16177583 -0.17320032 0.26112524 -0.14224511 -0.16073081 -0.39406782
0.14161402 -0.001989811 -0.3549433 0.28044444 0.021288093 -0.18744718 0.2011402 0.030074334
00000000: a991 2abf fea9 9cbd bf39 a1be 77e3 cbbe
00000010: 4749 9cbe 6d82 e8be c7f6 ae3e 0dd0 64bc
00000020: 492a 823d 9570 7c3e 1802 01bf 3832 b3be
00000030: a128 1c3e 6951 46be 1fa6 93bd dcf3 223d
00000040: 603d 2e3e 5007 983e ca7d f6be 9b43 e13c
00000050: 05c0 f8bd 8cef fabc 8395 c83e 0e65 3bbd
00000060: 8408 06bf 9933 5e3e 622b 48be 7524 843e
00000070: 39a8 73be ea47 5ebe 0e19 4f3e 700a ecbe
00000080: 50b0 c03e 2b77 bcbd e7f1 68be 5dab 97be
00000090: 4139 43be 6b4d 5cbe 3588 15be 8900 033d
000000a0: eb4e 86be fd46 97be a96e b7bd be58 9abe
000000b0: a26c 5d3e 8238 40be e075 e13d 99d5 62be
000000c0: 2a63 e4be 4b00 d4be 24fb 77be 8847 8f3e
000000d0: 062b c53e 4dc6 0abf 66cd ef3c 639b 5bbd
000000e0: c820 c63e 297f 05be 4801 833e 5901 3c3e
000000f0: 6263 00be a5f0 a5be acbb f4bd fe27 a63d
00000100: a12c 643e 0125 083e d4f9 85bd c279 af3e
00000110: 3ef4 ffbe 3c70 793e d9fa ac3d 68fe 9b3d
00000120: 13a9 7a3e bafb c0be d38f 04be 40e0 87be
00000130: b1ad 34be 13a9 90bd 76bb 5f3d 83e3 61be
00000140: bb81 a13e e930 8d3e 24ce e6bd d5db 2cbe
00000150: 7f19 cebe d9e2 1f3e f87d fd3d e065 9cbe
00000160: 1045 1ebe d8b8 d9be 3e1a 033e 5e8c ae3e
00000170: db4d 96be 44a4 15be 9129 0bbc 1c44 973e
00000180: b9ee 823e e59d eabd 535b adbe 8506 d1be
00000190: fefe 37bc a9ca da3d 0644 51be 5665 cebe
000001a0: 05a5 b83e 78a1 fa3d 9162 42be 3073 cabe
000001b0: 99c7 74be 0dfc 7abe 404b b2be a089 553e
000001c0: 8987 74be f4c1 c4bd cd1b b9be 94ae 3abe
000001d0: 9390 75be 1ea3 46bd c35c 65be c0a1 d13e
000001e0: 69de 23bf 8448 bc3c 5cf7 3abd f136 56be
000001f0: 0988 c73e e7d3 cbbe 2096 803d 3b2d 0ebe
00000200: f46c 08be 018a 04bf 49d3 eabe 023d c1be
00000210: 2b31 893e 1912 bbbe 0100 ccbe bd24 30bc
00000220: 695d 7a3e 32a1 d6be 0b41 5abe c7b8 aebe
00000230: 7721 0b3e 0e16 3cbe 00c4 843d dd1b 1a3c
00000240: 3a47 023f 2d8a 843e fb0d 4f3e 8820 b7be
00000250: fe14 ed3c 5512 e3be de6d a4be 6f4b 23be
00000260: 3ce8 c33d efdc eb3c 0bce a43e 49c4 1fbd
00000270: 2768 10be d3cd 38bf 5e30 683e 8c2c b43e
00000280: 0f07 5c3e 835a 28be 9a1d cb3e 65b4 4b3e
00000290: 6ebb 0abf e4ca 73be feb8 5b3e c43f 79be
000002a0: be7a ad3e 756d 8d3d d4b5 223d 1ffe 033d
000002b0: f60d 153c 5680 793d 5a80 66be c1b1 e6be
000002c0: 66bd 4c3e e8ae dabb 7f58 853c e198 b83b
000002d0: 01ad c2bc a9bf 08bf c155 753e 43c2 f63c
000002e0: a997 c4be 79d8 473e d326 3e3d 68fc 2e3e
000002f0: d343 8ebd 2141 ae3e 80d8 c73d 91ef 423e
00000300: bf63 b4be 2a92 d2be 14f8 e13e fa86 963e
00000310: dafc a8be daf2 66bd 1100 debd b186 3e3d
00000320: 6ce2 cdbe 4847 df3d 48d7 383e c8bb d6be
00000330: 8974 b73d 5cb8 41bd 300c ddbe 90ae 863e
00000340: 9be8 173e d03f 173e 4ae2 a13e f423 38be
00000350: 91b6 793e 2593 eb3b f6f7 d43e d0ad ab3e
00000360: e7a6 d23e 2083 40be d312 c3bc 5b80 a6bd
00000370: c1b5 003e 9cf6 903e 4f90 98be 64f6 093e
00000380: ddb3 74be d68a 80be f190 06bd f518 95bd
00000390: 0251 bd3e 132d 503e 5e79 6d3c 27a9 53be
000003a0: 0fb6 ab3e ce33 35be 7162 38bc 2035 aabc
000003b0: 8019 1d3d d1f1 bc3d 3873 c23b 6b45 c6be
000003c0: 7713 c73d 93f7 a33e 90a8 253e 6d5b 31be
000003d0: 35b2 853e b4a8 11be 9e96 24be 42c3 c9be
000003e0: 4403 113e 7d67 02bb 21bb b5be 6a96 8f3e
000003f0: 5e64 ae3c 27f2 3fbe b2f7 4d3e 735e f63c

tfl.pseudo_qconst i1 [64, 128]
-44 65 -24 23 7 17 43 54
40 7 -3 111 12 115 37 -19
-50 24 -81 -21 59 29 14 22
-5 37 -32 92 21 34 -82 28
-43 -52 59 75 66 29 34 12
-32 42 19 -15 -27 11 56 -8
-15 10 -21 92 -31 -3 -53 73
81 -28 -35 -52 -58 58 12 24
-22 39 1 14 16 52 55 -56
75 23 59 -41 -16 -72 44 80
-23 -39 18 34 -127 20 28 1
-4 43 4 14 27 69 -1 73
30 93 -24 0 49 -18 -37 38
-65 -47 52 -88 -23 97 21 31
35 -13 14 124 80 55 -41 71
21 41 -15 -18 -78 63 92 -23
24 55 -37 -20 24 32 106 -23
1 83 9 40 -68 127 -41 21
-124 -43 6 20 15 -4 -17 -16
-42 -90 45 -14 -39 23 -34 40
-57 -82 -44 56 -52 8 90 7
-87 62 -54 8 -68 42 69 14
31 15 22 85 -4 43 41 22
-43 -22 -6 39 -30 24 17 -23
-37 35 71 -22 40 50 117 38
-22 22 -57 2 -8 -20 9 -123
37 -62 -22 -80 -5 37 32 10
7 69 45 5 -22 24 33 38
21 28 -6 18 20 46 -25 -25
-17 -52 9 40 -57 55 40 21
-24 -8 -23 124 -40 49 -2 1
-59 20 32 -23 -32 -6 14 -10
00000000: d441 e817 0711 2b36 2807 fd6f 0c73 25ed
00000010: ce18 afeb 3b1d 0e16 fb25 e05c 1522 ae1c
00000020: d5cc 3b4b 421d 220c e02a 13f1 e50b 38f8
00000030: f10a eb5c e1fd cb49 51e4 ddcc c63a 0c18
00000040: ea27 010e 1034 37c8 4b17 3bd7 f0b8 2c50
00000050: e9d9 1222 8114 1c01 fc2b 040e 1b45 ff49
00000060: 1e5d e800 31ee db26 bfd1 34a8 e961 151f
00000070: 23f3 0e7c 5037 d747 1529 f1ee b23f 5ce9
00000080: 1837 dbec 1820 6ae9 0153 0928 bc7f d715
00000090: 84d5 0614 0ffc eff0 d6a6 2df2 d917 de28
000000a0: c7ae d438 cc08 5a07 a93e ca08 bc2a 450e
000000b0: 1f0f 1655 fc2b 2916 d5ea fa27 e218 11e9
000000c0: db23 47ea 2832 7526 ea16 c702 f8ec 0985
000000d0: 25c2 eab0 fb25 200a 0745 2d05 ea18 2126
000000e0: 151c fa12 142e e7e7 efcc 0928 c737 2815
000000f0: e8f8 e97c d831 fe01 c514 20e9 e0fa 0ef6

tfl.pseudo_qconst1 i1 [128, 784]
-21 -11 13 17 29 10 0 -3
-14 -30 -7 8 -19 -34 -36 -27
-14 -14 -20 12 -26 8 -17 -10
-18 4 6 -5 -17 0 14 -23
18 1 -12 -44 -20 -71 -20 -58
-21 34 35 -46 -14 -39 -6 -16
-64 -63 -45 -3 -2 22 -22 25
26 -25 4 -7 -23 -20 -17 -13
-47 -52 -53 -66 10 10 31 -47
-51 -21 -25 -87 -10 -20 -47 -71
18 -11 -16 -2 23 -17 11 -10
-46 -72 -69 -107 -68 10 -45 -93
-97 -50 34 6 -4 30 -1 0
15 -12 -60 0 -20 56 21 9
-23 -15 17 48 -80 -85 -22 2
-67 -22 -36 8 -19 5 -4 -35
-26 -37 -7 -5 12 -22 -29 -44
-35 -43 -2 -10 4 3 28 -21
-58 42 29 -18 -25 -25 -45 -41
-54 5 -34 -26 -19 -15 39 21
43 6 -44 -51 -88 -14 18 26
10 -15 0 31 5 46 44 -16
-8 -34 -42 -34 -33 -1 19 -6
20 42 17 -9 3 10 -43 -63
-48 -35 -3 4 25 -9 38 20
42 -28 22 30 -43 -68 -28 -13
-29 -4 -15 32 21 45 -12 -8
-31 -10 33 11 -11 13 -39 -53
-71 -35 60 41 1 -6 36 -16
-21 -46 -47 48 -2 19 10 33
52 48 32 -11 -37 33 -9 -3
12 -77 -85 -31 29 44 -40 2
00000000: ebf5 0d11 1d0a 00fd f2e2 f908 edde dce5
00000010: f2f2 ec0c e608 eff6 ee04 06fb ef00 0ee9
00000020: 1201 f4d4 ecb9 ecc6 eb22 23d2 f2d9 faf0
00000030: c0c1 d3fd fe16 ea19 1ae7 04f9 e9ec eff3
00000040: d1cc cbbe 0a0a 1fd1 cdeb e7a9 f6ec d1b9
00000050: 12f5 f0fe 17ef 0bf6 d2b8 bb95 bc0a d3a3
00000060: 9fce 2206 fc1e ff00 0ff4 c400 ec38 1509
00000070: e9f1 1130 b0ab ea02 bdea dc08 ed05 fcdd
00000080: e6db f9fb 0cea e3d4 ddd5 fef6 0403 1ceb
00000090: c62a 1dee e7e7 d3d7 ca05 dee6 edf1 2715
000000a0: 2b06 d4cd a8f2 121a 0af1 001f 052e 2cf0
000000b0: f8de d6de dfff 13fa 142a 11f7 030a d5c1
000000c0: d0dd fd04 19f7 2614 2ae4 161e d5bc e4f3
000000d0: e3fc f120 152d f4f8 e1f6 210b f50d d9cb
000000e0: b9dd 3c29 01fa 24f0 ebd2 d130 fe13 0a21
000000f0: 3430 20f5 db21 f7fd 0cb3 abe1 1d2c d802
